diabetes-model.onnx (onnx, 290952 bytes, 23 tensors)

sequential_1/dense_9/MatMul/ReadVariableOp:0 f4 [256, 64]
0.11747971 -0.36769515 0.14725935 0.36021668 0.089028925 -0.037128884 0.23906069 0.11086851
-0.08602134 -0.2517293 -0.028815689 -0.076350115 -0.18913633 0.29015252 0.11414021 -0.091246046
-0.14028734 -0.38667917 -0.14225933 0.09782342 0.26621178 0.25733444 -0.045584366 -0.2714982
-0.11622088 -0.09109001 0.30416313 0.13629362 0.33796448 0.17568034 -0.016148634 -0.11756274
0.058120683 -0.19346473 -0.12114185 -0.3811191 -0.15717898 -0.351343 0.13374978 0.18836775
0.14574072 0.024629755 0.21203527 0.31405315 -0.1781143 -0.25534138 -0.23858243 0.45691803
0.009988045 0.07234882 0.011329915 -0.051221058 -0.29661214 -0.11466262 0.2073873 -0.035730645
0.006783275 0.007587394 0.08735289 0.2762739 -0.011293796 -0.3328604 0.08027669 0.15370092
0.06962146 -0.12205933 0.2974069 0.08198413 -0.051996645 0.091996066 -0.004437116 -0.0701934
0.11260033 -0.14462991 0.021159988 0.27797467 0.17094497 -0.16094513 -0.07661175 0.033774555
0.114537835 0.21107556 -0.059352323 -0.36088392 -0.30323866 -0.05747732 0.17047368 0.18094082
-0.07490308 0.36970323 -0.16246964 -0.051129248 -0.17071223 -0.059585553 0.23072349 -0.16156425
-0.17010434 0.004257725 0.07445312 0.30117857 -0.095034786 0.30006027 0.1835582 -0.31510386
-0.40354928 -0.21192834 -0.072489135 -0.06047646 -0.32364842 0.09893422 0.10641582 0.049184773
0.051937643 0.10995025 -0.11874545 -0.10135873 0.2678878 0.25493923 -0.20851193 -0.035296716
-0.28110936 0.11407301 0.0555617 -0.2965279 0.014517591 0.11603351 0.105977125 -0.03334231
0.18567409 0.07178102 -0.12913214 0.046868235 0.009334993 -0.0181645 -0.16928372 0.15912709
0.2828579 -0.0011996002 -0.20326805 0.019983076 0.18135479 0.21737523 -0.037968457 -0.028115194
0.3916533 -0.1069654 0.047340915 -0.13033946 -0.09759886 -0.08560318 0.17712535 0.4207349
0.062775336 -0.013608374 0.024984444 0.08119632 -0.08833456 0.071934946 0.24872658 -0.13539886
0.12183059 0.17460802 0.16674219 0.22791608 0.20827994 -0.07202867 0.1559622 -0.18290564
-0.14496279 0.036483694 0.050380725 0.10534778 -0.62857836 0.30996817 0.29191357 0.17050122
0.026952107 0.061378855 -0.4644239 0.2653796 0.3099866 0.12136912 -0.23466745 -0.23450474
-0.3093543 0.093903795 -0.03270253 0.016527137 0.20726976 -0.17862831 0.013092712 0.004303871
0.40940514 0.15897663 -0.030509466 0.45297164 0.24555303 0.32820547 0.05480353 -0.19267397
0.32915297 0.10731185 -0.2615166 -0.22785583 0.34064695 -0.079644896 -0.3654264 -0.06519055
0.48286194 0.024404615 0.22408292 -0.44061178 -0.56467265 -0.2713162 0.40306783 0.13116205
0.15589038 0.020580055 0.17576662 0.31768164 -0.72913474 -0.31526768 -0.18263538 0.18725769
0.42916098 0.11800709 0.18842721 0.024890168 0.17461206 0.139821 0.3011989 -0.123748735
-0.55036414 0.13836472 -0.38748777 0.4990736 -0.3958432 0.24777856 0.4175145 -0.46290016
0.24496444 0.27452305 -0.2280753 0.31981543 0.365503 0.3341296 -0.4333592 -0.17819962
-0.2893732 0.12835567 0.35297057 -0.09605436 0.22243895 0.09875187 0.1767693 -0.27145553
00000000: 3499 f03d 8a42 bcbe 28cb 163e 526e b83e
00000010: cc54 b63d 7514 18bd 53cc 743e 080f e33d
00000020: f52b b0bd aae2 80be e10e ecbc 735d 9cbd
00000030: f4ac 41be df8e 943e 58c2 e93d 35df babd
00000040: 7ca7 0fbe d0fa c5be 6eac 11be a557 c83d
00000050: e94c 883e 57c1 833e acb6 3abd d001 8bbe
00000060: 3605 eebd 668d babd 45bb 9b3e 8e90 0b3e
00000070: ae09 ad3e 8ce5 333e 244a 84bc bcc4 f0bd
00000080: f40f 6e3d 9e1b 46be 3819 f8bd 0b22 c3be
00000090: 87f3 20be 3be3 b3be b4f5 083e 7ae3 403e
000000a0: 0e3d 153e 57c4 c93c c61f 593e 93cb a03e
000000b0: 9863 36be 1bbc 82be f44e 74be 29f1 e93e
000000c0: e6a4 233c 9e2b 943d 1ca1 393c 2ccd 51bd
000000d0: 8cdd 97be 3cd4 eabd 565d 543e 4c5a 12bd
000000e0: 3c46 de3b ad9f f83b 12e6 b23d c673 8d3e
000000f0: 9d09 39bc ae6c aabe 1b68 a43d c663 1d3e
00000100: b295 8e3d 3efa f9bd b845 983e 4ce7 a73d
00000110: 6ffa 54bd 6f68 bc3d 3a65 91bb 8fc1 8fbd
00000120: 009b e63d dd19 14be b657 ad3c b252 8e3e
00000130: 330c 2f3e cdce 24be 9fe6 9cbd 3057 0a3d
00000140: d092 ea3d 3124 583e 6c1b 73bd c7c5 b8be
00000150: 1942 9bbe 576d 6bbd a790 2e3e 8d48 393e
00000160: c966 99bd be49 bd3e 715e 26be e76c 51bd
00000170: 30cf 2ebe fb0f 74bd c742 6c3e 1971 25be
00000180: d52f 2ebe 6384 8b3b e17a 983d 1434 9a3e
00000190: 99a1 c2bd 80a1 993e aef6 3b3e 4b55 a1be
000001a0: 039e cebe be03 59be 2f75 94bd 2ab6 77bd
000001b0: 3fb5 a5be 069e ca3d 8af0 d93d f975 493d
000001c0: 91bc 543d 992d e13d d130 f3bd 2a95 cfbd
000001d0: 9728 893e 6587 823e 2784 55be 4a93 10bd
000001e0: 91ed 8fbe 1c9f e93d aa94 633d 81d2 97be
000001f0: 31db 6d3c faa2 ed3d 890a d93d f291 08bd
00000200: 5921 3e3e ed01 933d 373b 04be e8f8 3f3d
00000210: ccf1 183c b8cd 94bc b658 2dbe 36f2 223e
00000220: c0d2 903e e73b 9dba 8025 50be 8cb3 a33c
00000230: 12b5 393e 9d97 5e3e d084 1bbd d651 e6bc
00000240: c886 c83e ad10 dbbd 8ce8 413d b577 05be
00000250: e9e1 c7bd b850 afbd 5960 353e 916a d73e
00000260: 5b90 803d a8f5 5ebc 2dac cc3c 424a a63d
00000270: c0e8 b4bd a152 933d 2eb2 7e3e 00a6 0abe
00000280: 5182 f93d 72cc 323e 77be 2a3e d562 693e
00000290: 5647 553e c483 93bd 8eb4 1f3e 9e4b 3bbe
000002a0: 2071 14be ed6f 153d 055c 4e3d 94c0 d73d
000002b0: 83ea 20bf 26b4 9e3e b275 953e df97 2e3e
000002c0: aaca dc3c 6568 7b3d f8c8 edbe d6df 873e
000002d0: 90b6 9e3e 6090 f83d aa4c 70be 0322 70be
000002e0: b063 9ebe a250 c03d 17f3 05bd eb63 873c
000002f0: 863e 543e 57ea 36be d082 563c 7d07 8d3b
00000300: 8d9d d13e c5ca 223e fdee f9bc e6eb e73e
00000310: 4172 7b3e 8c0a a83e ab79 603d 534c 45be
00000320: bd86 a83e 51c6 db3d 81e5 85be 0a53 69be
00000330: 4769 ae3e dd1c a3bd 2b19 bbbe a082 85bd
00000340: ae39 f73e 30ec c73c fe75 653e de97 e1be
00000350: 638e 10bf f5e9 8abe e85e ce3e 584f 063e
00000360: baa1 1f3e 8197 a83c 2afc 333e 2ba7 a23e
00000370: 93a8 3abf c46a a1be c504 3bbe 7bc0 3f3e
00000380: fdba db3e b4ad f13d 10f3 403e 77e6 cb3c
00000390: 81cd 323e 3c2d 0f3e be36 9a3e fa6f fdbd
000003a0: aae4 0cbf 7baf 0d3e cc64 c6be 9386 ff3e
000003b0: f6ab cabe aab9 7d3e 76c4 d53e 4001 edbe
000003c0: f5d7 7a3e 498e 8c3e 928c 69be d9be a33e
000003d0: 3623 bb3e 0913 ab3e 42e1 ddbe f679 36be
000003e0: b928 94be ab6f 033e 8fb8 b43e 26b8 c4bd
000003f0: 09c7 633e 6c3e ca3d 0303 353e 38fc 8abe

sequential_1/dense_9/BiasAdd/ReadVariableOp:0 f4 [64]
-0.17176846 -0.17651887 -0.3918345 -0.047296945 -0.05537754 -0.0023074609 -0.19037138 -0.13003801
-0.26068363 0.1426582 0.18161415 -0.03987749 -0.21339165 -0.019083828 0.034857985 -0.003071446
0.13724412 -0.2259056 -0.13325961 0.13196617 0.12425919 -0.1693111 0.05806671 -0.031126313
-0.045526233 -0.11787257 -0.0060785986 -0.058616206 0.08739979 -0.04185142 -0.28685668 -0.21564439
-0.0381479 0.33354276 -0.15260784 -0.19384725 -0.30062023 -0.2845864 0.063291475 0.1456699
0.011438972 0.22519897 0.15028623 -0.12789379 -0.07860094 0.09413615 -0.4630827 -0.033924304
-0.07288071 -0.28270087 0.09322069 -0.11926211 -0.6292405 -0.337387 0.020798717 -0.13614029
-0.13628632 0.022212567 -0.06915184 -0.054857 -0.22892135 -0.37262633 -0.16279219 0.12770873
00000000: 12e4 2fbe 5dc1 34be 889e c8be 71ba 41bd
00000010: 8fd3 62bd c538 17bb b7f0 42be af28 05be
00000020: 5378 85be fe14 123e 0ff9 393e 9456 23bd
00000030: 5783 5abe b055 9cbc 3fc7 0e3d 504a 49bb
00000040: b989 0c3e cc53 67be 3575 08be 2422 073e
00000050: 9a7b fe3d e45f 2dbe 5cd7 6d3d 9cfc febc
00000060: b779 3abd 2d67 f1bd fb2e c7bb 8c17 70bd
00000070: a9fe b23d 656c 2bbd e1de 92be e2d1 5cbe
00000080: f940 1cbd 1ec6 aa3e 3b45 1cbe e57f 46be
00000090: e5ea 99be 4fb5 91be f69e 813d 7e2a 153e
000000a0: 876a 3b3c 8f9a 663e a2e4 193e 97f6 02be
000000b0: 88f9 a0bd 74ca c03d 2d19 edbe 36f4 0abd
000000c0: 7b42 95bd 2bbe 90be 7dea be3d b13f f4bd
000000d0: e815 21bf fdbd acbe 1262 aa3c 5c68 0bbe
000000e0: a48e 0bbe 21f7 b53c 7b9f 8dbd bcb1 60bd
000000f0: 5c6a 6abe e1c8 bebe ffb2 26be 14c6 023e

sequential_1/dense_8/MatMul/ReadVariableOp:0 f4 [64, 256]
0.20538308 -0.23044828 -0.030458715 -0.0063778623 -0.03391326 -0.14611618 -0.100813545 -0.060281843
-0.6261855 -0.55746156 -0.34968883 0.1889703 0.11571795 -0.26023832 0.08181917 -0.14852075
-0.31819862 0.20150913 -0.031992994 -0.06813919 0.55720824 0.08963968 -0.20341595 0.21751659
0.055800904 -0.29609022 0.095110685 -0.5678123 0.028987901 -0.43940145 -0.4649791 0.49479643
-0.2735458 0.454113 -0.29875314 -0.47278938 -0.016373783 -0.076863825 -0.0020168007 0.048314065
0.054279394 -0.12440074 -0.14296219 -0.59098595 0.12890974 0.021589225 -0.16693307 -0.23124638
-0.0609101 -0.12846138 0.47550985 0.026117453 -0.10280331 0.13960189 -0.118272856 -0.26194835
-0.08263439 -0.15615895 -0.11252049 0.017776996 -0.17771223 -0.115293 -0.044290487 -0.0001967303
-0.06277501 -0.026071759 -0.48498604 -0.0006584595 -0.15335871 -0.20024948 -0.0030445135 -0.07770718
0.019365733 -0.2455639 -0.39469397 -0.11895656 -0.048453894 0.055830814 -0.42182714 -0.16772796
0.20933165 0.15535338 0.047480963 0.035539173 -0.48162952 -0.075436436 0.053031556 -0.010439909
-0.33682543 -0.12351709 -0.16994943 0.2390835 0.07713843 -0.016543237 -0.09245575 -0.37116078
0.03493367 -0.25556308 0.04811109 -0.17174833 0.29787078 -0.10608148 0.26252112 0.023872836
-0.107007384 -0.21766701 -0.2141894 -0.30587465 -0.37368798 0.23763536 -0.39094123 -0.22678901
-0.14960074 0.4339059 -0.08140982 -0.5146478 0.053386133 -0.028094888 -0.016477643 -0.061584443
0.32548103 0.021424847 0.111504205 -0.044935495 -0.15557934 -0.37286657 0.39833704 -0.16948888
-0.0744953 0.15236612 -0.5247551 -0.2347527 0.228355 0.025356738 -0.27360058 -0.3758004
-0.06050471 -0.0025903343 -0.29406157 -0.016239181 -0.19452338 -0.11429692 0.30262375 -0.35143277
0.101568475 0.02411262 -0.46749935 -0.15593939 0.0452375 0.16884813 0.02905939 0.1330403
0.22401583 -0.54149395 0.06486949 0.07192299 -0.070379764 -0.17528199 -0.056778446 -0.3305488
0.31968573 -0.20905529 -0.1760523 -0.22094756 0.22448035 0.21005419 -0.2546252 0.012616715
-0.10897838 0.007837612 0.14489903 -0.1688429 -0.21252918 -0.08621914 -0.22103728 0.012400664
-0.049286816 0.11248478 -0.053212296 0.08219099 -0.35815915 -0.016163096 -0.05515641 0.026392477
0.044358116 -0.1056329 0.15117353 0.074649535 -0.20995681 -0.20459455 0.15046996 -0.3503445
0.010570268 0.073641255 -0.2790162 -0.18194695 0.028849378 -0.4810974 0.28963467 -0.5927662
-0.067798935 -0.16453512 -0.0985492 -0.1406531 -0.19638374 0.13838333 0.20873907 -0.011265324
-0.26503882 -0.009564413 0.2451655 -0.3084537 0.117454335 -0.3611488 0.15549149 0.0013447226
-0.02513312 -0.3556032 0.15797327 -0.42274392 -0.0886508 -0.012369718 0.053580422 -0.23623013
0.28755528 -0.10284177 -0.22027536 0.12791383 0.0749031 0.043495044 0.0668214 0.22479783
-0.0505778 -0.23816846 -0.18024345 -0.3425393 0.056840375 -0.19916478 -0.078892104 -0.24857892
-0.027840795 -0.00023344818 -0.24807042 -0.22049084 -0.75498515 0.2979805 -0.020642767 -0.074148275
-0.67392117 -0.2940738 -0.5575998 0.20164208 0.042382475 0.26817197 -0.1173056 -0.095391095
00000000: f14f 523e a2fa 6bbe 8e84 f9bc 63fd d0bb
00000010: a1e8 0abd 7b9f 15be 5577 cebd 18ea 76bd
00000020: b14d 20bf cdb5 0ebf 6a0a b3be 6e81 413e
00000030: 88fd ec3d f53d 85be cf90 a73d d315 18be
00000040: eeea a2be 6958 4e3e 160b 03bd 8f8c 8bbd
00000050: 33a5 0e3f 0295 b73d 454c 50be abbc 5e3e
00000060: 7d8f 643d 2399 97be 64c9 c23d 265c 11bf
00000070: 0978 ed3c 3af9 e0be be11 eebe f555 fd3e
00000080: 320e 8cbe 8081 e83e 2cf6 98be 7311 f2be
00000090: 5022 86bc c86a 9dbd 4d2c 04bb f8e4 453d
000000a0: 1254 5e3d d1c5 febd ae64 12be db4a 17bf
000000b0: ea00 043e e3db b03c 81f0 2abe dacb 6cbe
000000c0: de7c 79bd 618b 03be 0776 f33e 45f4 d53c
000000d0: 8b8a d2bd ccf3 0e3e 0a39 f2bd 181e 86be
000000e0: 383c a9bd 22e8 1fbe 2571 e6bd 10a1 913c
000000f0: 32fa 35be bd1e ecbd f169 35bd 6349 4eb9
00000100: 2f90 80bd 7194 d5bc 1750 f8be 789c 2cba
00000110: 110a 1dbe 330e 4dbe 7686 47bb f124 9fbd
00000120: e3a4 9e3c 1a75 7bbe 5415 cabe 7f9f f3bd
00000130: 9777 46bd daae 643d baf9 d7be e1c0 2bbe
00000140: 095b 563e f514 1f3e 667b 423d 8691 113d
00000150: 2598 f6be 6b7e 9abd 9e37 593d 270c 2bbc
00000160: 6274 acbe 87f6 fcbd 3907 2ebe 4ed2 743e
00000170: c1fa 9d3d af85 87bc 7159 bdbd c908 bebe
00000180: 9c16 0f3d 2ad9 82be 2210 453d cbde 2fbe
00000190: 8582 983e 3f41 d9bd 2b69 863e f790 c33c
000001a0: b026 dbbd 1ae4 5ebe 7754 5bbe 9a9b 9cbe
000001b0: 0854 bfbe af56 733e 7329 c8be 613b 68be
000001c0: f030 19be ea28 de3e 31ba a6bd f5bf 03bf
000001d0: 6bab 5a3d 4027 e6bc 1ffc 86bc f83f 7cbd
000001e0: 73a5 a63e 2983 af3c 515c e43d 480e 38bd
000001f0: 3150 1fbe 5ee8 bebe d5f2 cb3e 7e8e 2dbe
00000200: fe90 98bd dd05 1c3e 5a56 06bf 0363 70be
00000210: e5d5 693e efb8 cf3c 6015 8cbe e968 c0be
00000220: c9d3 77bd 99c2 29bb 3d8f 96be 0808 85bc
00000230: 2331 47be 8114 eabd 80f1 9a3e ffee b3be
00000240: 2203 d03d d487 c53c 135c efbe 93ae 1fbe
00000250: f54a 393d 86e6 2c3e f50d ee3c b73b 083e
00000260: 6864 653e 599f 0abf 4cda 843d 5c4c 933d
00000270: 4423 90bd 1f7d 33be 8490 68bd b13d a9be
00000280: d9ad a33e 9712 56be 0e47 34be 1440 62be
00000290: 2dde 653e 7218 573e 3c5e 82be 57b6 4e3c
000002a0: 0f30 dfbd 5469 003c 6960 143e 27e5 2cbe
000002b0: 40a1 59be a993 b0bd 9957 62be 282c 4b3c
000002c0: f9e0 49bd 6c5e e63d 23f5 59bd c053 a83d
000002d0: a360 b7be 7868 84bc b0eb 61bd 0935 d83c
000002e0: dbb0 353d 1056 d8bd 3ccd 1a3e dbe1 983d
000002f0: ebfe 56be 3c81 51be cc14 1a3e 5b60 b3be
00000300: eb2e 2d3c 3ad1 963d 36db 8ebe 4d50 3abe
00000310: 8855 ec3c 6652 f6be ff4a 943e 87bf 17bf
00000320: 2bda 8abd e57b 28be 2ad4 c9bd 5e07 10be
00000330: d218 49be 5cb4 0d3e b2bf 553e 3292 38bc
00000340: 2bb3 87be 0eb4 1cbc aa0c 7b3e a5ed 9dbe
00000350: e68b f03d 7fe8 b8be 2939 1f3e 6741 b03a
00000360: f9e3 cdbc 9f11 b6be bfc3 213e e471 d8be
00000370: 8d8e b5bd 5caa 4abc 2577 5b3d 50e6 71be
00000380: 723a 933e b59e d2bd dd8f 61be d8fb 023e
00000390: cc66 993d dc27 323d a8d9 883d 6731 663e
000003a0: ab2a 4fbd 6fe2 73be bd91 38be 5061 afbe
000003b0: 74d1 683d daf1 4bbe 2f92 a1bd 798b 7ebe
000003c0: 6112 e4bc c5c9 74b9 2c06 7ebe 5ac8 61be
000003d0: b546 41bf e690 983e 051b a9bc 0ddb 97bd
000003e0: 1986 2cbf d790 96be dcbe 0ebf 437b 4e3e
000003f0: 3f99 2d3d d64d 893e eb3d f0bd 685c c3bd

sequential_1/dense_8/BiasAdd/ReadVariableOp:0 f4 [256]
-0.26424038 -0.26946673 -0.23839806 -0.38768283 -0.21973206 -0.25248122 -0.0029211263 -0.35998577
-0.18717058 -0.28187183 -0.37268168 -0.18307179 -0.36807033 -0.4163368 -0.31842095 0.006006525
-0.35896453 -0.13482192 -0.39025658 -0.21124293 -0.08433414 0.04952301 -0.47568917 -0.47067207
-0.1783483 -0.22892837 -0.3510874 -0.23914298 0.011172289 -0.30056697 -0.21462665 -0.24580497
-0.36496288 -0.0052482313 -0.17281547 -0.13323529 -0.23097317 -0.05559054 -0.22254014 0.088847555
-0.19382952 -0.013095473 -0.50077593 -0.18428548 -0.34036598 0.09550707 -0.08062554 -0.36956483
-0.27764127 -0.08473632 -0.379244 -0.40444303 -0.42600885 -0.5713239 -0.26298422 -0.32219788
0.072317444 -0.3346494 0.028495582 -0.34872517 -0.13803838 -0.22000177 -0.117627926 -0.30821332
-0.4474867 0.22571619 -0.23854287 0.27954784 -0.31502733 -0.115058295 -0.06960445 -0.26530385
-0.20103078 -0.29374522 -0.0746588 -0.2954944 -0.34761846 -0.4027976 -0.04443276 -0.27724296
-0.29342854 -0.23960952 -0.07099559 -0.27383494 0.002319944 -0.17118387 -0.0391768 -0.4410165
-0.17107305 -0.15917985 -0.39708316 -0.5429066 -0.44022048 -0.25932965 -0.32653555 -0.09374421
-0.46274 -0.36142474 -0.4622363 -0.2090508 -0.019072903 -0.33027717 -0.7079348 0.16273977
-0.3839507 -0.16345021 -0.23178308 -0.19515409 -0.3167187 -0.13050932 0.02244566 -0.20301743
0.010282802 -0.21670745 -0.33865082 -0.170156 -0.32455948 -0.17088498 0.11519382 -0.014349899
-0.5867604 0.20092757 -0.31322396 -0.4623577 -0.537903 -0.34846616 -0.18689798 -0.20592181
-0.6249364 -0.46430627 -0.20648067 -0.32668805 0.09255434 -0.087687224 0.08543673 0.03585461
-0.04949358 -0.13453601 0.028960323 -0.2133566 -0.30499825 -0.4336184 0.21850526 -0.14404026
-0.053476576 -0.51263654 -0.019683462 -0.2510938 -0.36126396 0.18359414 -0.4303328 -0.31359765
-0.14315517 -0.15706523 0.18579224 0.004563 0.04712426 -0.19315848 -0.08611382 -0.43950593
-0.012155983 -0.39676595 -0.14831369 0.16277269 -0.32421672 -0.1737404 -0.13668284 -0.36326894
-0.4176319 -0.39397308 -0.19098169 -0.07054222 -0.21779804 -0.23333752 -0.1584793 -0.06054881
0.35064378 -0.121704236 -0.047643006 0.10881359 -0.16731666 -0.13852106 0.22723813 -0.29236135
0.02319132 -0.4867494 -0.10448765 -0.073853895 -0.2378926 -0.32697058 -0.28430688 -0.13154307
-0.079409495 -0.035145786 -0.27037853 -0.30121136 -0.5246783 0.07166113 -0.12168301 -0.49762085
-0.21836662 0.10487712 -0.08688467 -0.29821274 -0.09389417 -0.07632529 0.03184318 0.05625159
-0.007956561 -0.036647048 -0.3210508 -0.40705284 0.1339842 -0.04057659 -0.67483526 -0.25549158
-0.56229955 -0.26879972 0.116585225 -0.2455904 -0.24820758 0.02368473 -0.070053786 -0.07587131
-0.30878642 0.08295263 -0.26393855 -0.32940498 -0.39815274 0.02725191 -0.13488263 -0.48911127
-0.23665598 -0.34016448 -0.018050566 -0.40507045 -0.49870795 -0.12945499 -0.55785364 -0.22360586
-0.29481718 -0.45334035 -0.24081649 -0.43391004 -0.15128234 -0.28953516 -0.5035924 -0.5674988
-0.42978868 -0.5394153 -0.26467916 -0.03275703 -0.36002627 -0.099146076 -0.55479103 0.026688727
00000000: 844a 87be 8bf7 89be 9f1e 74be 5d7e c6be
00000010: 7101 61be 3845 81be 5e70 3fbb 0e50 b8be
00000020: a5a9 3fbe 8151 90be 22d0 bebe 2c77 3bbe
00000030: b773 bcbe 192a d5be 1208 a3be 62d2 c43b
00000040: 33ca b7be c20e 0abe b6cf c7be 1150 58be
00000050: 61b7 acbd a4d8 4a3d 888d f3be eefb f0be
00000060: f0a0 36be 336c 6abe bac1 b3be e6e1 74be
00000070: fa0b 373c eae3 99be 17c7 5bbe 4cb4 7bbe
00000080: 6adc babe 5bf9 abbb 8af6 30be d56e 08be
00000090: 3b84 6cbe e8b2 63bd 90e1 63be b5f5 b53d
000000a0: 3f7b 46be 658e 56bc da32 00bf 55b5 3cbe
000000b0: 7344 aebe 3699 c33d 011f a5bd 9a37 bdbe
000000c0: ff26 8ebe 3c8a adbd 452c c2be 2813 cfbe
000000d0: d51d dabe 4842 12bf dea5 86be 1ff7 a4be
000000e0: 2b1b 943d 2b57 abbe 916f e93c 1b8c b2be
000000f0: ef59 0dbe 2548 61be e9e6 f0bd 23ce 9dbe
00000100: fa1c e5be 2522 673e 9544 74be e520 8f3e
00000110: 434b a1be afa3 ebbd c78c 8ebd e8d5 87be
00000120: 03db 4dbe c665 96be b7e6 98bd 0b4b 97be
00000130: 0cfb b1be 7d3b cebe 20ff 35bd caf2 8dbe
00000140: 443c 96be 335c 75be 2366 91bd 1834 8cbe
00000150: 340a 183b d34a 2fbe da77 20bd eacc e1be
00000160: c62d 2fbe 0b00 23be 7c4e cbbe edfb 0abf
00000170: 9464 e1be dbc6 84be ab2f a7be f7fc bfbd
00000180: 42ec ecbe aa0c b9be 3caa ecbe 6a11 56be
00000190: c73e 9cbc 171a a9be 373b 35bf 41a5 263e
000001a0: 3095 c4be 7e5f 27be 8b58 6dbe 79d6 47be
000001b0: f428 a2be 3ca4 05be f6df b73c cde3 4fbe
000001c0: 3379 283c 8fe8 5dbe a463 adbe 603d 2ebe
000001d0: a92c a6be 79fc 2ebe bdea eb3d d71b 6bbc
000001e0: ee35 16bf f5bf 4d3e e45e a0be 26ba ecbe
000001f0: 03b4 09bf 286a b2be 2f62 3fbe 2bdd 52be
00000200: d5fb 1fbf 8db9 edbe ab6f 53be a843 a7be
00000210: 218d bd3d 5c95 b3bd 74f9 ae3d 49dc 123d
00000220: c8b9 4abd cfc3 09be 333e ed3c 277a 5abe
00000230: bb28 9cbe 3b03 debe d8bf 5f3e 4a7f 13be
00000240: 410a 5bbd 263c 03bf 363f a1bc 5e8f 80be
00000250: 97f7 b8be 1a00 3c3e 9554 dcbe df8f a0be
00000260: 4597 12be b5d5 20be 5240 3e3e 3885 953b
00000270: 5e05 413d 56cb 45be 715c b0bd ec06 e1be
00000280: e329 47bc e824 cbbe 8bdf 17be e2ad 263e
00000290: bcff a5be 01e9 31be 96f6 0bbe 63fe b9be
000002a0: d9d3 d5be d7b6 c9be b490 43be 7078 90bd
000002b0: 7306 5fbe 08f0 6ebe 6648 22be 0702 78bd
000002c0: 9587 b33e 1240 f9bd 5025 43bd a9d9 de3d
000002d0: 0f55 2bbe 77d8 0dbe 1db1 683e 63b0 95be
000002e0: b9fb bd3c 3837 f9be 9ffd d5bd b640 97bd
000002f0: 1e9a 73be b068 a7be ac90 91be 3ab3 06be
00000300: 72a1 a2bd 07f5 0fbd 0e6f 8abe 6038 9abe
00000310: 5151 06bf 12c3 923d f134 f9bd 29c8 febe
00000320: 809b 5fbe d1c9 d63d 97f0 b1bd 57af 98be
00000330: 964b c0bd 6f50 9cbd ff6d 023d 1168 663d
00000340: 3c5c 02bc 371b 16bd c560 a4be 3b69 d0be
00000350: 2733 093e a333 26bd 01c2 2cbf cbcf 82be
00000360: ddf2 0fbf 1ea0 89be 3cc4 ee3d 0d7c 7bbe
00000370: 212a 7ebe 7b06 c23c 5c78 8fbd 6b62 9bbd
00000380: 4119 9ebe 12e3 a93d f422 87be c5a7 a8be
00000390: adda cbbe 663f df3c ac1e 0abe cb6c fabe
000003a0: f255 72be 0a2a aebe c8de 93bc 6565 cfbe
000003b0: a656 ffbe d98f 04be 7fcf 0ebf eff8 64be
000003c0: 47f2 96be 3a1c e8be 9998 76be 7529 debe
000003d0: c2e9 1abe f43d 94be 6eeb 00bf 9a47 11bf
000003e0: 430d dcbe 1f17 0abf 0784 87be 3c2c 06bd
000003f0: 5d55 b8be 190d cbbd c906 0ebf 51a2 da3c

sequential_1/dense_7/MatMul/ReadVariableOp:0 f4 [21, 64]
-0.15949462 0.13338186 0.029164387 -0.06866544 0.25092444 0.112228565 0.01960364 0.0452473
-0.20016415 0.060480043 -0.19650577 0.06843697 0.053066187 0.049024787 0.06408413 -0.2376016
0.19051754 0.18688512 -0.23291545 0.019600397 -0.37765062 -0.03800856 -0.3374808 0.31017697
-0.01223888 -0.25634202 -0.058139034 0.09002844 -0.0043615648 0.059459336 -0.14025223 0.055043973
-0.0358992 -0.1595798 0.14327814 -0.36316925 -0.28943932 -0.27176192 0.09679797 -0.03835786
-0.009225007 0.040782504 0.4123484 0.012896465 0.31203443 -0.17894109 0.04575866 0.0009229563
-0.2791686 0.10890993 -0.0457626 -0.47909734 -0.27902186 0.27085787 -0.07645479 -0.11025237
0.15754187 0.5856376 0.20289606 0.14438075 -0.008543712 0.0007901045 -0.06946246 0.42290944
0.045170892 -0.04483732 0.07660468 0.3587843 0.15991989 -0.27094734 0.0058658626 -0.19296929
-0.1844861 -0.30010948 -0.15640083 0.3139019 0.50272584 0.051541496 -0.003817838 -0.29398304
-0.13880856 -0.33047408 0.13373636 0.018108234 -0.17452586 0.1526985 0.07938627 -0.41930193
0.077039026 -0.008854817 0.35336724 0.3318043 -0.052177772 -0.036929823 -0.028054636 0.28091
0.034335963 -0.27711082 -0.09060801 -0.034346562 -0.047487922 0.013563774 0.3161519 -0.18384132
0.14396581 0.113622494 -0.123950295 0.15030897 -0.18241166 -0.18081054 0.35151953 -0.29696435
0.032936454 0.08897807 0.37732518 0.20730819 0.008178945 -0.10892035 0.2614075 0.2748522
0.3673715 0.22904953 0.08627644 -0.10684797 -0.024249937 0.07072975 -0.046732455 -0.028008329
0.0057442808 0.16604753 0.09884707 -0.21756864 -0.050674222 0.16036855 0.01533582 0.04907024
-0.041311856 -0.0695879 -0.09365289 0.06090551 -0.11804256 -0.09085054 -0.028040031 -0.03425644
0.06609631 -0.02140408 -0.025023948 -0.021071402 -0.015972102 -0.003539773 0.022207398 0.07803237
-0.06242643 0.2608436 0.07049173 0.028964512 -0.08790169 -0.08117305 -0.10590584 0.036095306
-0.05815672 0.06277969 -0.05193738 -0.051700033 -0.17748874 -0.09210158 -0.110702895 -0.052874375
-0.08650279 0.12768841 0.03872337 -0.048663806 0.0035087424 0.3993201 -0.0770243 -0.045524634
-0.102181435 0.123143665 0.031373836 0.024345454 0.39665338 0.070644036 -0.14259695 0.08966162
0.60878885 0.0019777033 0.15818919 -0.11874366 0.19286983 -0.020606754 -0.17062515 -0.020015217
-0.29167163 0.13459074 0.18945585 0.40843663 0.48917663 0.2710002 -0.19456254 -0.378017
0.31102592 0.09684605 0.042701896 -0.15418822 0.16971453 0.11771715 -0.8443422 -0.34844282
-0.8968479 -0.75767684 0.16880219 -0.13921817 0.2781605 0.40458736 0.58303374 0.37067667
-0.6073922 -0.21152958 -0.59779716 -0.43919855 0.10780851 -0.0819266 0.026901582 0.16938223
0.57573813 0.32811326 0.31104133 0.2187952 0.45361412 -0.72046316 -0.9944741 0.70898455
-0.09860987 0.16996466 0.24327013 -0.20353194 0.40924108 0.11139106 -0.7601576 -0.36365402
0.5441254 -0.2629314 -0.043576486 -0.5264648 -0.8916225 -0.93030274 -0.1400707 0.28193474
0.32938412 -0.1330822 -0.53314394 0.13544427 0.47307405 0.3917224 -0.2684548 0.38949192
00000000: 8f52 23be 4195 083e 27ea ee3c 77a0 8cbd
00000010: 2b79 803e 17d8 e53d d097 a03c 3c55 393d
00000020: d5f7 4cbe ecb9 773d cf38 49be af28 8c3d
00000030: ee5b 593d 37ce 483d 8a3e 833d d54d 73be
00000040: 0817 433e d05e 3f3e 6381 6ebe 0391 a03c
00000050: 6c5b c1be ddae 1bbd 49ca acbe 84cf 9e3e
00000060: 9585 48bc 433f 83be 3223 6ebd d560 b83d
00000070: 75eb 8ebb a28b 733d 489e 0fbe ca75 613d
00000080: 0a0b 13bd e368 23be 81b7 123e 52f1 b9be
00000090: 6431 94be 6124 8bbe 043e c63d 221d 1dbd
000000a0: 7c24 17bc 8e0b 273d 541f d33e b24b 533c
000000b0: fac2 9f3e 553c 37be 6f6d 3b3d 8cf2 713a
000000c0: 30ef 8ebe 2b0c df3d 9071 3bbd 3f4c f5be
000000d0: f4db 8ebe e2ad 8a3e 5494 9cbd ffcb e1bd
000000e0: a852 213e 59ec 153f fcc3 4f3e 8cd8 133e
000000f0: edfa 0bbc 041f 4f3a 5642 8ebd 9687 d83e
00000100: 1d05 393d 56a7 37bd eae2 9c3d 93b2 b73e
00000110: 0ac2 233e 9cb9 8abe 6c36 c03b be99 45be
00000120: ede9 3cbe f3a7 99be 8a27 20be c0b7 a03e
00000130: a4b2 003f 2d1d 533d b134 7abb f284 96be
00000140: d523 0ebe e633 a9be 2ff2 083e b857 943c
00000150: e8b6 32be ff5c 1c3e 4595 a23d beae d6be
00000160: a3c6 9d3d cb13 11bc 8dec b43e 41e2 a93e
00000170: 5cb8 55bd ba43 17bd d6d2 e5bc 6fd3 8f3e
00000180: dea3 0c3d 78e1 8dbe b190 b9bd fbae 0cbd
00000190: b282 42bd 973a 5e3c a9de a13e e640 3cbe
000001a0: c66b 133e e9b2 e83d a7d9 fdbd 98ea 193e
000001b0: 1fca 3abe 6626 39be 5efa b33e b60b 98be
000001c0: 60e8 063d 223a b63d c430 c13e 9948 543e
000001d0: fb00 063c a211 dfbd 34d7 853e 6db9 8c3e
000001e0: 1e18 bc3e f68b 6a3e b4b1 b03d 1cd3 dabd
000001f0: cea7 c6bc c2da 903d 886a 3fbd b971 e5bc
00000200: 853a bc3b 5d08 2a3e 5570 ca3d 50ca 5ebe
00000210: c68f 4fbd a737 243e 1743 7b3c e0fd 483d
00000220: 9f36 29bd 1a84 8ebd 16cd bfbd 0e78 793d
00000230: 4cc0 f1bd d90f babd 35b4 e5bc 7b50 0cbd
00000240: 815d 873d 9c57 afbc 06ff ccbc ef9d acbc
00000250: edd7 82bc 89fb 67bb 4aec b53c 6fcf 9f3d
00000260: dbb2 7fbd 4b8d 853e f85d 903d fc46 ed3c
00000270: cd05 b4bd 0e3e a6bd 29e5 d8bd acd8 133d
00000280: be35 6ebd a392 803d 4abc 54bd 6ac3 53bd
00000290: 9cbf 35be c19f bcbd 33b8 e2bd cd92 58bd
000002a0: 6028 b1bd c0c0 023e 659c 1e3d b353 47bd
000002b0: eef2 653b af73 cc3e ebbe 9dbd 0a78 3abd
000002c0: 8044 d1bd bf32 fc3d da81 003d 1e70 c73c
000002d0: 2716 cb3e d2ad 903d ef04 12be 83a0 b73d
000002e0: 96d9 1b3f 5b9c 013b 59fc 213e e02f f3bd
000002f0: ab7f 453e 7fcf a8bc 5cb8 2ebe f4f6 a3bc
00000300: fc55 95be 28d2 093e b700 423e 9b1e d13e
00000310: 5c75 fa3e 8ac0 8a3e 673b 47be 728b c1be
00000320: ca3e 9f3e 3957 c63d 2fe8 2e3d 84e3 1dbe
00000330: a5c9 2d3e b015 f13d cf26 58bf 1967 b2be
00000340: d397 65bf 1cf7 41bf 7bda 2c3e 358f 0ebe
00000350: 0e6b 8e3e 1326 cf3e b341 153f 55c9 bd3e
00000360: 0e7e 1bbf 369b 58be 3c09 19bf a2de e0be
00000370: b5ca dc3d 22c9 a7bd b560 dc3c 8972 2d3e
00000380: 9363 133f 76fe a73e cf40 9f3e d90b 603e
00000390: 1c40 e83e 4670 38bf db95 7ebf 0380 353f
000003a0: f9f3 c9bd 370b 2e3e ce1b 793e ad6a 50be
000003b0: 0c88 d13e ff20 e43d b099 42bf dc30 babe
000003c0: cd4b 0b3f f29e 86be 427d 32bd 66c6 06bf
000003d0: 5f41 64bf 5228 6ebf b26e 0fbe c059 903e
000003e0: 09a5 a83e b346 08be 1f7c 08bf e7b1 0a3e
000003f0: c336 f23e d78f c83e e872 89be 7c6b c73e

sequential_1/dense_7/BiasAdd/ReadVariableOp:0 f4 [64]
-0.40489772 -0.20532316 -0.14380974 -0.043565102 -0.12124635 -0.2657533 -0.30680624 -0.21672896
-0.23405498 -0.18782184 -0.117539585 -0.15985072 -0.23238309 -0.5132807 -0.3937026 -0.21279097
-0.15459612 0.16335218 -0.58703864 -0.81003654 -0.12644814 0.06970195 -0.38131553 0.06451076
-0.59870917 0.042651497 -0.20106544 -0.284492 -0.37585837 -0.52662975 0.1479389 -0.16374697
-0.3981518 0.2608388 -0.28064734 -0.047520544 -0.3789815 0.099147126 0.014812418 -0.4867854
-0.23122816 0.020436155 -0.38789055 0.15449642 -0.16082983 0.19959344 -0.042240005 -0.010691048
-0.10170709 -0.0020662686 -0.2526594 0.09288691 0.116956934 -0.06305365 -0.099866 0.014800791
0.37363702 0.062067486 -0.2273462 -0.09353239 -0.08472156 -0.41809443 -0.17467979 -0.28961143
00000000: c14e cfbe 3c40 52be dc42 13be 5271 32bd
00000010: 0250 f8bd d110 88be b515 9dbe 32ee 5dbe
00000020: 1cac 6fbe 5e54 40be 98b8 f0bd e8af 23be
00000030: d5f5 6dbe 5d66 03bf 6393 c9be e0e5 59be
00000040: 724e 1ebe cb45 273e 2a48 16bf 8e5e 4fbf
00000050: 9f7b 01be e5bf 8e3d ca3b c3be 381e 843d
00000060: 0145 19bf 56b3 2e3d 19e4 4dbe efa8 91be
00000070: 8270 c0be 35d1 06bf 4c7d 173e 49ad 27be
00000080: 8dda cbbe aa8c 853e 02b1 8fbe e7a4 42bd
00000090: dd09 c2be a60d cb3d c9af 723c f03b f9be
000000a0: 13c7 6cbe b969 a73c 9799 c6be 4f34 1e3e
000000b0: 93b0 24be 3962 4c3e db03 2dbd 8129 2fbc
000000c0: cf4b d0bd 3c6a 07bb 935c 81be 7e3b be3d
000000d0: 1e87 ef3d 4622 81bd 8c86 ccbd 047f 723c
000000e0: 5a4d bf3e 7a3a 7e3d 71cd 68be e98d bfbd
000000f0: 7f82 adbd 7910 d6be 42df 32be f347 94be

sequential_1/dense_13/MatMul/ReadVariableOp:0 f4 [32, 1]
0.37149528 0.007515155 0.11156357 0.06953671 0.008166187 -0.009501105 -0.011652142 0.07318935
-0.12094902 0.32404456 0.10766117 0.3119442 -0.25555477 0.035573453 0.13485633 0.35872516
-0.12189044 0.11971075 -0.017220242 -0.16634546 -0.052125856 0.382868 -0.1167931 0.34886247
0.20777997 0.0026211503 -0.004105419 0.03956304 0.36893347 0.10794293 -0.08351849 -0.07708427
00000000: a134 be3e b041 f63b 717b e43d 4369 8e3d
00000010: 79cb 053c 86aa 1bbc a0e8 3ebc 4ce4 953d
00000020: 1fb4 f7bd 2be9 a53e 767d dc3d 26b7 9f3e
00000030: 13d8 82be 78b5 113d c717 0a3e d3aa b73e
00000040: b2a1 f9bd e92a f53d 7711 8dbc 7756 2abe
00000050: ec81 55bd 4607 c43e 3931 efbd 1a9e b23e
00000060: 46c4 543e 9bc7 2b3b c086 86bb db0c 223d
00000070: d9e4 bc3e 2f11 dd3d be0b abbd 5cde 9dbd

sequential_1/dense_12/MatMul/ReadVariableOp:0 f4 [64, 32]
0.14034607 0.07653184 0.3018001 0.24877906 0.3830863 -0.12719777 0.023864608 -0.03100854
-0.17679156 0.12936968 0.21281055 0.2174631 -0.034101557 0.33942407 0.4177422 0.18130997
0.013498581 0.38173598 0.1948802 0.20514719 0.32480255 0.29136193 -0.111758605 0.23569627
0.08149878 0.08963883 0.29915407 0.053759284 -0.15662421 0.097557604 0.37721103 -0.20865463
-0.21670146 -0.04166574 -0.011254458 -0.1207994 0.044732474 -0.11917166 -0.03914842 -0.07155011
0.18027407 -0.19978811 -0.046242908 -0.30981597 -0.16386788 -0.086387016 0.0040292377 -0.098367594
-0.30182037 -0.29754484 -0.15872118 0.18348601 0.15903176 -0.050498348 -0.2731059 -0.22201762
-0.09717006 -0.02212761 -0.010428778 -0.008423602 -0.45897895 -0.08321668 0.17107216 0.17781577
-0.30859643 -0.25644448 -0.02208807 -0.10903391 -0.2950137 -0.2644651 -0.016764173 -0.4325643
-0.29031906 -0.35844252 0.010353244 -0.31128615 0.22376387 0.0025527251 0.32461014 -0.74138105
0.102676034 -0.31827623 -0.061944675 0.23253132 -0.2816034 -0.6900953 -0.09753936 -0.41251075
-0.4701757 -0.19664831 -0.06195476 -0.17149979 -0.21936552 -0.21699694 -0.17363957 -0.32221907
0.42063624 -0.017695647 0.14351013 0.24450746 0.139085 -0.005261988 0.0959761 0.30250835
-0.25420943 0.57585424 0.19796316 -0.05398212 -0.25277624 0.17117307 0.105413005 0.37852955
-0.3769193 0.028737675 0.26848978 -0.33777857 0.25146893 0.2985875 -0.19435656 -0.06291353
0.4663385 0.25781634 0.28676796 0.1973881 -0.04232384 0.4146463 -0.043972645 -0.032260343
0.13902117 0.2518581 0.36029023 0.06806035 -0.22669324 0.09323637 -0.057266686 0.34743047
-0.12783061 0.1526779 -0.15924218 0.27167663 0.1498458 -0.047355372 0.08120554 0.21426277
0.11399173 0.14264384 0.22308153 -0.19159523 0.28337643 0.29343322 -0.110113226 0.12036314
0.34869954 -0.060353387 0.32537052 0.10948085 0.05312041 0.29939753 0.2697757 -0.093308054
-0.3292451 0.027905226 -0.36909434 0.017727645 0.08942356 -0.0477814 -0.08587892 0.015380305
0.10703726 -0.3140025 -0.0076168403 -0.14470494 -0.19464356 0.07659937 -0.0044586523 -0.20153281
-0.2515903 -0.096762806 -0.034207337 0.17261097 0.12740844 -0.09280704 -0.18172312 -0.019430308
-0.26201397 0.07376101 -0.030600673 0.0346919 -0.39544445 -0.21650776 -0.26156598 0.08930425
0.008463185 0.13090509 -0.18014587 0.22970116 0.16221294 0.024574665 -0.29567018 0.050266493
-0.13929333 0.07006464 -0.15427805 -0.35462952 0.24361026 0.28735673 0.029547157 0.18522765
0.12623346 0.073679455 -0.24344955 0.1898602 -0.13460988 0.11907496 0.061930697 -0.053321183
0.011286439 0.073827825 0.009367273 0.028639639 -0.39127338 -0.2158642 0.18182032 -0.35063225
0.24986687 -0.18029949 0.21846749 0.033501487 -0.05020162 -0.265231 -0.0067015192 0.4235778
0.025722016 -0.10153633 0.014898206 0.18722256 -0.2263006 -0.13849889 -0.09658799 0.29179
-0.23064618 0.19966997 0.09472765 0.06531359 -0.12292695 0.22381708 -0.3843501 -0.05709438
0.22182766 0.14898394 0.12727837 0.12522471 0.12791283 0.27829337 0.32095438 -0.21524274
00000000: e1b6 0f3e babc 9c3d 8b85 9a3e f0bf 7e3e
00000010: e323 c43e 2240 02be b67f c33c 9f05 febc
00000020: d908 35be 7c79 043e 02eb 593e a6ae 5e3e
00000030: 13ae 0bbd fec8 ad3e 4ee2 d53e 52a9 393e
00000040: 2729 5d3c e672 c33e ad8e 473e 1b12 523e
00000050: 854c a63e 642d 953e b2e1 e4bd 5d5a 713e
00000060: d5e8 a63d 9094 b73d b92a 993e b232 5c3d
00000070: 1962 20be 48cc c73d ce21 c13e 8fa9 55be
00000080: fde6 5dbe b2a9 2abd 9e64 38bc ad65 f7bd
00000090: 6639 373d 4510 f4bd 185a 20bd dd88 92bd
000000a0: c499 383e 4195 4cbe 3469 3dbd 33a0 9ebe
000000b0: fbcc 27be adeb b0bd b207 843b f374 c9bd
000000c0: 3388 9abe cc57 98be ce87 22be c2e3 3b3e
000000d0: 39d9 223e 5bd7 4ebd 89d4 8bbe 9658 63be
000000e0: 1901 c7bd f644 b5bc 77dd 2abc 2603 0abc
000000f0: 4aff eabe 826d aabd 8a2d 2f3e 5615 363e
00000100: 5a00 9ebe b14c 83be 0af2 b4bc 2c4d dfbd
00000110: 090c 97be f867 87be 0555 89bc 1179 ddbe
00000120: b3a4 94be c785 b7be a7a0 293c e660 9fbe
00000130: 5b22 653e 9f4b 273b 4d33 a63e 26cb 3dbf
00000140: d047 d23d 1af5 a2be b3b9 7dbd b11c 6e3e
00000150: 522e 90be 16aa 30bf b7c2 c7bd 9c34 d3be
00000160: dfba f0be 2d5e 49be 46c4 7dbd a49d 2fbe
00000170: 5ba1 60be 7234 5ebe 92ce 31be e6f9 a4be
00000180: a25d d73e 76f6 90bc 52f4 123e 2a60 7a3e
00000190: 4c6c 0e3e c16c acbb 1e8f c43d 60e2 9a3e
000001a0: bd27 82be 2f6b 133f dbb6 4a3e 5b1c 5dbd
000001b0: e36b 81be fe47 2f3e c6e2 d73d a0ce c13e
000001c0: 91fb c0be 466b eb3c 7e77 893e 50f1 acbe
000001d0: 89c0 803e 76e0 983e 6805 47be cfd8 80bd
000001e0: ebc3 ee3e 8100 843e 40d3 923e 1b20 4a3e
000001f0: c35b 2dbd 854c d43e a91c 34bd 6c23 04bd
00000200: 915b 0e3e 8bf3 803e f677 b83e 3a63 8b3d
00000210: 4622 68be b6f2 be3d 7990 6abd 68e2 b13e
00000220: 07e6 02be 9857 1c3e 6210 23be 3319 8b3e
00000230: 2d71 193e b5f7 41bd 174f a63d b367 5b3e
00000240: 7f74 e93d 3a11 123e 7c6f 643e 8a31 44be
00000250: b716 913e e13c 963e 0b83 e1bd f380 f63d
00000260: bf88 b23e 1d35 77bd f796 a63e 7f37 e03d
00000270: c994 593d a24a 993e 0a20 8a3e 4b18 bfbd
00000280: d092 a8be 8099 e43c eff9 bcbe 9139 913c
00000290: b323 b73d 6eb6 43bd 4ae1 afbd adfd 7b3c
000002a0: 5a36 db3d f0c4 a0be b096 f9bb 882d 14be
000002b0: a450 47be 21e0 9c3d e319 92bb 9e5e 4ebe
000002c0: 72d0 80be 942b c6bd fe1c 0cbd eec0 303e
000002d0: 5c77 023e 9e11 bebd a015 3abe 4f2c 9fbc
000002e0: b226 86be 0310 973d 43ae fabc 1819 0e3d
000002f0: b277 cabe 36b4 5dbe faeb 85be 26e5 b63d
00000300: 2ca9 0a3c fc0b 063e 2978 38be c836 6b3e
00000310: 261b 263e cf50 c93c 1562 97be 3de4 4d3d
00000320: e9a2 0ebe 0d7e 8f3d 11fb 1dbe 0092 b5be
00000330: f874 793e 6c20 933e e10c f23c 51ac 3d3e
00000340: 5843 013e 41e5 963d d74a 79be b66a 423e
00000350: 2cd7 09be 93dd f33d 0bab 7d3d 5067 5abd
00000360: c2ea 383c 0b33 973d 3179 193c ad9d ea3c
00000370: fc54 c8be 810b 5dbe 1b2f 3a3e 1286 b3be
00000380: 1add 7f3e 6ea0 38be f1b5 5f3e db38 093d
00000390: 37a0 4dbd 5ccc 87be 6b98 dbbb 30df d83e
000003a0: fab6 d23c 48f2 cfbd 9b17 743c 45b7 3f3e
000003b0: 58bb 67be a7d2 0dbe edcf c5bd 8065 953e
000003c0: 832e 6cbe 4976 4c3e 9200 c23d 22c3 853d
000003d0: 20c1 fbbd 4e30 653e 89c9 c4be ccdb 69bd
000003e0: ca26 633e 3f8f 183e 4355 023e e83a 003e
000003f0: 95fb 023e 787c 8e3e 2254 a43e 9868 5cbe

sequential_1/dense_12/BiasAdd/ReadVariableOp:0 f4 [32]
-0.16303375 -0.3588572 -0.32003826 -0.32693604 -0.5515616 -0.20522344 -0.018199971 -0.2556374
0.27956206 -0.15427665 -0.37708768 -0.2759878 0.21817401 -0.7588435 -0.29231286 -0.21459168
0.18000647 -0.36252335 -0.5956886 0.27437073 -0.64242953 -0.14919876 0.14042474 -0.24396504
-0.28493965 -0.6963134 -0.49230638 -0.48568016 -0.082674965 -0.39785224 0.0333526 0.0949514
00000000: 52f2 26be 22bc b7be 0edc a3be 2964 a7be
00000010: 2433 0dbf 1826 52be 1b18 95bc e8e2 82be
00000020: c222 8f3e b3fa 1dbe a311 c1be 464e 8dbe
00000030: 0269 5f3e 9143 42bf 08aa 95be ecbd 5bbe
00000040: 9e53 383e a99c b9be 0c7f 18bf 527a 8c3e
00000050: 4376 24bf 8fc7 18be 81cb 0f3e f9d1 79be
00000060: 9ce3 91be 9841 32bf 950f fcbe 12ab f8be
00000070: 7e51 a9bd 4ab3 cbbe bc9c 083d e175 c23d

sequential_1/dense_11/MatMul/ReadVariableOp:0 f4 [256, 64]
0.17662343 0.012628666 -0.006720287 0.15867472 -0.062069785 -0.42931703 -0.057048947 0.13698415
-0.3571526 0.0027521744 0.36379045 -0.29257122 0.081421636 0.46912664 -0.51073503 0.21236812
0.49295324 -0.19776091 -0.34154797 -0.09125234 -0.016910182 -0.23186666 0.42263523 0.1460332
-0.10750069 -0.030699 -0.38332266 -0.051809307 0.3770611 0.3408651 0.103949875 -0.24466547
-0.018414713 -0.45790496 -0.2627264 -0.06913818 -0.21143976 -0.029860318 0.3078076 0.23252842
0.10863334 -0.295154 -0.35510865 -0.0014858058 -0.15985918 0.15033025 -0.03487555 0.2390486
0.11058573 0.29144403 -0.042034887 0.15639487 -0.12524602 0.023031158 -0.049281787 0.10383375
0.31564024 0.34148356 -0.11557899 0.44003257 0.08155936 0.04589591 0.031337246 -0.113639586
0.10668161 -0.28184366 0.05826459 0.006807495 0.31776252 0.003500591 -0.12003995 0.36095944
-0.1639795 -0.051229462 0.08192125 0.043859094 0.06542771 0.041964516 0.08376062 0.24187864
0.120956086 -0.2835177 -0.06611408 0.23323186 0.14442374 -0.16830279 -0.0950676 0.38066438
0.39384538 0.18332283 -0.046468288 0.22528426 0.17013557 0.12561442 0.13117044 -0.20297265
0.3441363 -0.24439287 0.05580653 0.04758934 -0.35119992 0.58279824 0.19513682 0.17232639
0.06430958 0.2194775 0.12493034 -0.072394274 -0.078393765 -0.03645627 0.03037778 -0.24548936
0.1905219 -0.21948446 0.2003683 -0.050011568 0.02652509 0.29578742 -0.09790854 -0.20560811
-0.008948962 -0.0131940795 0.50036764 -0.09579648 0.06645695 0.1946366 -0.08951979 -0.28972715
-0.27766863 -0.33942237 0.13291131 0.4223992 -0.06440407 -0.24458599 -0.08386702 -0.1787252
-0.536198 -0.21602413 -0.088763826 0.017922396 -0.2233258 0.13902795 -0.15726794 -0.25467676
-0.20446369 -0.23982233 -0.16325466 0.021670243 0.014430606 -0.263665 0.20009153 -0.06770453
-0.15816084 -0.19197287 -0.3071711 0.07187701 -0.004757817 -0.032789085 0.1465484 -0.20276235
-0.28090364 -0.08416907 0.096194774 0.025912434 -0.48835385 -0.00259529 0.14040188 0.065264575
-0.007596952 0.1360595 -0.070893876 0.0766963 0.08210866 -0.13215579 -0.12654844 0.4040072
-0.16010335 -0.033607323 0.17615813 -0.11734716 -0.28313333 -0.23845133 -0.11791581 -0.36873475
0.32624286 -0.053801678 0.17398025 0.29457325 0.013308294 0.3484593 -0.06792073 -0.2521087
0.11314418 -0.26747945 -0.005701662 0.13116825 0.15357897 -0.25421816 0.12230672 0.24816233
0.16758507 0.09186141 0.0060543795 -0.272913 0.2867391 0.3381736 -0.10958026 -0.16389768
0.19152574 -0.26125512 -0.13884991 0.12580582 -0.071022995 0.201843 0.36181456 0.07446552
-0.20325716 -0.028515717 -0.16039352 0.048940964 0.06925946 0.049540117 -0.3590708 0.0009216684
0.03987655 -0.2493958 -0.11337923 -0.02171785 -0.02565498 -0.061248813 -0.0077242656 0.19455735
0.0738492 -0.20650196 -0.052219473 0.0040323474 0.15025508 -0.30385053 0.03651169 0.23238796
-0.064358175 0.29554522 -0.18316115 0.1475449 -0.4121504 0.11336614 0.061010584 -0.20141631
0.20625965 0.22060792 0.21391611 0.305116 -0.33663106 -0.0950363 -0.35668913 -0.06964124
00000000: c6dc 343e 77e8 4e3c da35 dcbb a07b 223e
00000010: e33c 7ebd 71cf dbbe 28ac 69bd 9345 0c3e
00000020: b5dc b6be d35d 343b be42 ba3e e5cb 95be
00000030: 63c0 a63d 5e31 f03e 88bf 02bf 0777 593e
00000040: 5e64 fc3e d681 4abe 60df aebe 82e2 babd
00000050: 3987 8abc 746e 6dbe a563 d83e ba89 153e
00000060: 5229 dcbd 787c fbbc de42 c4be ff35 54bd
00000070: 270e c13e df85 ae3e ace3 d43d 9689 7abe
00000080: 74da 96bc 8572 eabe 1384 86be 5198 8dbd
00000090: aa83 58be a09d f4bc f598 9d3e ee1b 6e3e
000000a0: 287b de3d 6d1e 97be cdd0 b5be 5fbf c2ba
000000b0: 20b2 23be 2cf0 193e aad9 0ebd 28c9 743e
000000c0: c57a e23d 2738 953e c62c 2cbd fa25 203e
000000d0: 7e40 00be d7ab bc3c b3db 49bd caa6 d43d
000000e0: 999b a13e efd6 ae3e adb4 ecbd f34b e13e
000000f0: 9808 a73d 5afd 3b3d 7c5b 003d dfbb e8bd
00000100: e37b da3d d04d 90be daa6 6e3d 6811 df3b
00000110: c5b1 a23e 2c6a 653b 81d7 f5bd adcf b83e
00000120: 3eea 27be fcd5 51bd 54c6 a73d 98a5 333d
00000130: f7fe 853d fce2 2b3d b08a ab3d 09af 773e
00000140: d3b7 f73d 3b29 91be d266 87bd 55d4 6e3e
00000150: d1e3 133e 9157 2cbe cdb2 c2bd 71e6 c23e
00000160: 1aa6 c93e fbb8 3b3e 8855 3ebd ebb0 663e
00000170: 0538 2e3e 11a1 003e 8b51 063e 10d8 4fbe
00000180: a232 b03e 2042 7abe 6395 643d 0aed 423d
00000190: 7ad0 b3be 4432 153f f2d1 473e 5476 303e
000001a0: beb4 833d b6be 603e 7adb ff3d 7343 94bd
000001b0: e98c a0bd 2b53 15bd d2da f83c 9061 7bbe
000001c0: 2c18 433e 89c0 60be 592d 4d3e eed8 4cbd
000001d0: 254b d93c 7371 973e 4684 c8bd ef8a 52be
000001e0: ab9e 12bc fb2b 58bc 1818 003f f230 c4bd
000001f0: 951a 883d d14e 473e 2756 b7bd 1e57 94be
00000200: 952a 8ebe c5c8 adbe e719 083e b544 d83e
00000210: 48e6 83bd c074 7abe 79c2 abbd bd03 37be
00000220: 4644 09bf 6e35 5dbe cfc9 b5bd fdd1 923c
00000230: 85af 64be 585d 0e3e d90a 21be fe64 82be
00000240: ee5e 51be fc93 75be 3b2c 27be cb85 b13c
00000250: 596e 6c3c 19ff 86be cbe4 4c3e aca8 8abd
00000260: eaf4 21be 8994 44be 8845 9dbe 4134 933d
00000270: 76e7 9bbb d94d 06bd c910 163e efa0 4fbe
00000280: 9ad2 8fbe d560 acbd c401 c53d 5046 d43c
00000290: 8409 fabe be15 2abb 83c5 0f3e 6fa9 853d
000002a0: daef f8bb 2e53 0b3e cf30 91bd f312 9d3d
000002b0: 9628 a83d d953 07be ea95 01be 08da ce3e
000002c0: 22f2 23be d5a7 09bd cc62 343e b553 f0bd
000002d0: daf6 90be 962c 74be d87d f1bd cdca bcbe
000002e0: 4e09 a73e 265f 5cbd e127 323e 4ed2 963e
000002f0: 080b 5a3c 4269 b23e 061a 8bbd 6414 81be
00000300: 23b8 e73d 11f3 88be 02d5 babb f850 063e
00000310: ce43 1d3e e228 82be f27b fa3d 441e 7e3e
00000320: 6c9b 2b3e d621 bc3d d163 c63b 41bb 8bbe
00000330: 78cf 923e 1725 ad3e 9e6b e0bd cbd4 27be
00000340: 531f 443e 3bc3 85be ac2e 0ebe 3ed3 003e
00000350: 8174 91bd eeaf 4e3e c23f b93e 6181 983d
00000360: a522 50be cb99 e9bc 333e 24be 5276 483d
00000370: e7d7 8d3d 94ea 4a3d 21d8 b7be 1f9c 713a
00000380: 9855 233d 9d61 7fbe 5f33 e8bd a2e9 b1bc
00000390: 652a d2bc 09e0 7abd d61b fdbb 0b3a 473e
000003a0: 403e 973d 4075 53be 16e4 55bd c821 843b
000003b0: 78dc 193e 4c92 9bbe 488d 153d 1cf7 6d3e
000003c0: 38ce 83bd b451 973e 998e 3bbe 0316 173e
000003d0: 6105 d3be 822c e83d 3ce6 793d 1440 4ebe
000003e0: bb35 533e 0be7 613e d30c 5b3e 2a38 9c3e
000003f0: e85a acbe 64a2 c2bd f59f b6be 11a0 8ebd

sequential_1/dense_11/BiasAdd/ReadVariableOp:0 f4 [64]
-0.17894246 0.06274055 -0.1764564 -0.10465431 -0.14948024 -0.093898386 0.19203575 -0.003086591
0.12253569 -0.14445184 -0.10335315 0.1466328 -0.3046377 -0.07422491 -0.03801492 -0.4611207
-0.116623856 -0.07949171 0.017393794 -0.1987708 -0.41717348 -0.1254625 -0.176773 -0.34580183
0.028660838 -0.055003997 0.10697106 0.09978194 -0.09591316 -0.074318536 -0.018839978 0.16980936
-0.33245978 0.63955 -0.1095457 0.19011311 -0.15636149 -0.097287074 -0.35830027 -0.11778279
-0.06899694 0.09155737 -0.12585296 -0.025036229 0.32499614 -0.24530149 -0.045886174 -0.27433285
-0.37232754 -0.20994677 -0.46348983 -0.021007108 -0.07845582 -0.2293797 -0.122790866 -0.18430585
-0.064955086 -0.22481588 0.09425558 -0.1756601 -0.11375819 -0.21810204 -0.32196182 0.11747042
00000000: b13c 37be 1e7e 803d fdb0 34be 0055 d6bd
00000010: 5911 19be cc4d c0bd 05a5 443e 6748 4abb
00000020: fef3 fa3d 2feb 13be d1aa d3bd e926 163e
00000030: 79f9 9bbe 3b03 98bd 88b5 1bbd 0318 ecbe
00000040: 7dd8 eebd 8dcc a2bd 6e7d 8e3c 938a 4bbe
00000050: c397 d5be 3e79 00be fb03 35be f00c b1be
00000060: 22ca ea3c df4b 61bd a513 db3d 795a cc3d
00000070: 1e6e c4bd 5134 98bd 4c56 9abc 81e2 2d3e
00000080: 2b38 aabe 8cb9 233f 7f59 e0bd 03ad 423e
00000090: 3a1d 20be 723e c7bd 2273 b7be 1a38 f1bd
000000a0: 454e 8dbd 6e82 bb3d 99df 00be c718 cdbc
000000b0: e565 a63e 5030 7bbe 24f3 3bbd 5b75 8cbe
000000c0: b7a1 bebe 49fc 56be 8a4e edbe 1917 acbc
000000d0: 72ad a0bd 83e2 6abe c779 fbbd acba 3cbe
000000e0: 2c07 85bd 2236 66be 1209 c13d 3ee0 33be
000000f0: 0efa e8bd 2456 5fbe 2ed8 a4be 5594 f03d

sequential_1/dense_10/MatMul/ReadVariableOp:0 f4 [64, 256]
0.13908853 -0.20792387 0.18490481 0.1516508 0.029158056 -0.19876847 -0.2964075 0.3287047
0.109957315 0.26703888 -0.40462264 0.25131518 -0.4466676 0.16122885 0.0062948847 -0.2654664
-0.2544761 -0.28682497 0.20489855 -0.10012909 -0.1559607 -0.337048 -0.15881643 -0.44945055
0.100692436 0.06518235 -0.27306697 0.10610948 0.123346455 -0.22624579 -0.2324425 0.38910156
-0.03192717 0.11401281 -0.041460775 -0.16092888 -0.30376512 0.1901037 -0.26775855 -0.15541708
-0.08581753 -0.26738966 -0.008908718 -0.2770286 -0.17715795 -0.2835014 0.2579044 0.0780199
-0.0373123 -0.1541618 0.08528267 -0.2117635 -0.118920274 0.30793816 0.007382833 -0.047119215
0.0625795 0.19912381 0.07940716 -0.5354937 -0.3604031 0.3748189 -0.3504542 0.22159047
0.14195673 -0.255659 -0.16775542 0.19230431 0.099957205 -0.22382121 -0.045209337 0.20030038
-0.14469208 0.2588303 0.227992 -0.48944014 -0.12164091 0.10087814 -0.41572365 -0.046693053
-0.3246471 -0.5826131 0.0062515247 -0.3980705 -0.23025438 0.081224866 -0.671388 -0.007956145
0.32391945 -0.39353082 0.1609234 -0.37206778 -0.21822028 -0.316994 -0.3947052 0.43578085
-0.37400773 -0.22644964 -0.0015197442 0.17432691 -0.5262968 0.31509933 -0.35418984 0.2203095
0.21269195 -0.10932092 -0.065364264 0.34637293 -0.38599235 -0.20683934 0.08062824 -0.19039273
0.13105282 0.14535242 -0.020874133 -0.29557404 -0.2803728 -0.15017621 -0.16611172 -0.037486933
-0.06441762 0.023148417 -0.49325377 -0.04734887 -0.25497895 0.18041766 -0.1841153 0.14496458
-0.14458656 -0.1954631 0.085490696 -0.04316297 -0.014104643 0.13970996 -0.25219688 0.2317801
-0.19755669 -0.3824805 -0.47716534 -0.2380015 -0.3646569 -0.18701816 -0.0116405245 -0.30434006
-0.46287566 0.09530815 0.23770782 -0.18257675 0.008177244 0.40004617 -0.09576326 0.051198967
-0.4712762 -0.5215124 0.16518272 -0.47353125 -0.1629328 0.23454115 -0.6442054 0.2526767
0.12760267 0.4218912 -0.40937752 0.23670691 0.35361055 -0.23942852 0.19976985 -0.020614905
0.0008070289 -0.20653287 0.4617906 -0.3343329 -0.49473035 -0.079694055 -0.24238208 -0.3660208
-0.046392847 -0.023175465 -0.06568838 -0.1662959 0.069368124 -0.25509033 -0.34981537 -0.3063423
-0.20257999 -0.54599154 0.4521376 0.0061269444 0.4534103 -0.093431 -0.2749331 -0.12141974
-0.15106055 0.22838388 -0.0018609627 -0.18217042 0.012434233 0.043201596 0.14773518 0.47590762
-0.3193881 -0.013855907 0.09585449 -0.08406691 -0.47557917 0.41766107 -0.22594339 0.073196694
-0.04394365 -0.25643456 0.17113012 0.30450323 -0.09051397 -0.2155888 0.13578393 0.22424705
-0.09021511 -0.13274524 0.013800265 -0.43749467 -0.1079485 -0.031852897 0.020996975 0.026115188
-0.3564029 0.26702252 0.13672255 0.0049062804 0.10345225 0.1961924 -0.20507537 -0.3971508
-0.25016013 0.39006126 -0.07512262 -0.17283818 0.42361194 -0.5231091 0.08873251 0.018129656
-0.24381684 -0.12885101 -0.25436652 0.05601462 0.43749535 -0.421081 0.020497527 0.5116507
-0.075688824 0.018167691 -0.33079606 0.20487833 0.28058365 -0.4024216 0.30830958 -0.10668543
00000000: 396d 0e3e ffe9 54be b057 3d3e 594a 1b3e
00000010: e0dc ee3c f689 4bbe b9c2 97be fc4b a83e
00000020: 4d31 e13d 52b9 883e b32a cfbe 62ac 803e
00000030: 9eb1 e4be 2d19 253e 5245 ce3b 36eb 87be
00000040: b14a 82be b9da 92be edd0 513e 7b10 cdbd
00000050: 29b4 1fbe 8e91 acbe c6a0 22be 621e e6be
00000060: d637 ce3d 537e 853d 6fcf 8bbe ed4f d93d
00000070: 119d fc3d faac 67be 6805 6ebe 5238 c73e
00000080: 10c6 02bd 8c7f e93d c6d2 29bd 8aca 24be
00000090: 1a87 9bbe 8baa 423e a617 89be a825 1fbe
000000a0: 1ac1 afbd 4ce7 88be dff5 11bc b1d6 8dbe
000000b0: e568 35be 1827 91be 0c0c 843e e6c8 9f3d
000000c0: c8d4 18bd 97dc 1dbe aea8 ae3d 88d8 58be
000000d0: 798c f3bd 12aa 9d3e b1eb f13b 1400 41bd
000000e0: ae29 803d 1de7 4b3e 39a0 a23d 1d16 09bf
000000f0: c186 b8be 43e8 bf3e bc6e b3be 9de8 623e
00000100: 1b5d 113e bde5 82be 14c8 2bbe 6ceb 443e
00000110: 5db6 cc3d 6331 65be 6d2d 39bd 8b1b 4d3e
00000120: 292a 14be 6885 843e bc76 693e e697 fabe
00000130: df1e f9bd 3399 ce3d bbd9 d4be 3741 3fbd
00000140: 2538 a6be 2226 15bf 97d9 cc3b e6cf cbbe
00000150: cec7 6bbe 3959 a63d 15e0 2bbf 7e5a 02bc
00000160: c5d8 a53e df7c c9be 1bc9 243e ab7f bebe
00000170: 2375 5fbe 0a4d a2be cd16 cabe ab1e df3e
00000180: f17d bfbe 6ae2 67be 2732 c7ba c182 323e
00000190: 63bb 06bf b354 a13e 5f58 b5be d098 613e
000001a0: ebcb 593e a6e3 dfbd b3dd 85bd cb57 b13e
000001b0: caa0 c5be b1cd 53be 6b20 a53d 50f6 42be
000001c0: b632 063e 44d7 143e 3b00 abbc 7b55 97be
000001d0: 068d 8fbe cbc7 19be 3119 2abe e68b 19bd
000001e0: 63ed 83bd c0a1 bd3c c28b fcbe e4f0 41bd
000001f0: 9a8c 82be 68bf 383e b988 3cbe 9871 143e
00000200: 800e 14be 7b27 48be bf15 af3d a8cb 30bd
00000210: 2917 67bc 2110 0f3e f31f 81be c357 6d3e
00000220: 4d4c 4abe 7cd4 c3be 044f f4be aab6 73be
00000230: 4fb4 babe b081 3fbe e6b7 3ebc 76d2 9bbe
00000240: 0afe ecbe eb30 c33d ae69 733e 66f5 3abe
00000250: d9f9 053c dad2 cc3e 871f c4bd 02b6 513d
00000260: 1d4b f1be d681 05bf a925 293e b072 f2be
00000270: dbd7 26be 8e2b 703e a5ea 24bf d75e 813e
00000280: 46aa 023e 2002 d83e ee99 d1be 4c63 723e
00000290: 710c b53e c02c 75be 7890 4c3e 97e0 a8bc
000002a0: cb8e 533a 5a7d 53be d16f ec3e af2d abbe
000002b0: 4c4d fdbe a336 a3bd 0233 78be 1467 bbbe
000002c0: 6d06 3ebd 79da bdbc a187 86bd 7949 2abe
000002d0: e010 8e3d 339b 82be 001b b3be e6d8 9cbe
000002e0: 2171 4fbe 1ac6 0bbf 947e e73e 89c4 c83b
000002f0: 6525 e83e c158 bfbd 08c4 8cbe eaaa f8bd
00000300: 9eaf 1abe 77dd 693e 8ceb f3ba e28a 3abe
00000310: f4b8 4b3c 28f4 303d e447 173e 2aaa f33e
00000320: d686 a3be e303 63bc 5c4f c43d 462b acbd
00000330: 1d7f f3be acd7 d53e b45d 67be 26e8 953d
00000340: 42fe 33bd 644b 83be bc3c 2f3e d9e7 9b3e
00000350: 635f b9bd 4fc3 5cbe f10a 0b3e 05a1 653e
00000360: b3c2 b8bd 5eee 07be 821a 623c 4dff dfbe
00000370: 1a14 ddbd 2f78 02bd d901 ac3c 85ef d53c
00000380: 717a b6be 2db7 883e ff00 0c3e ddc4 a03b
00000390: c6de d33d a9e6 483e 47ff 51be 5a57 cbbe
000003a0: fd14 80be 1cb6 c73e e3d9 99bd 7efc 30be
000003b0: aae3 d83e 7aea 05bf 64b9 b53d a584 943c
000003c0: 1fab 79be 85f1 03be 543c 82be 966f 653d
000003d0: 64ff df3e ee97 d7be 6eea a73c 8afb 023f
000003e0: be02 9bbd 69d4 943c 1a5e a9be a0cb 513e
000003f0: a9a8 8f3e 340a cebe c1da 9d3e e47d dabd
